training/classifier/travel_classifier.pt (torch, 529921 bytes, 4 tensors)

0.weight f4 [256, 512]
00000000: bfea 24bd 31c9 afbd 85cb b4bc cfea af3b
00000010: d877 ae3d c5fd ea3c d989 2f3a dc6d ddbb
00000020: 5c63 c13d 71d4 acbd 173b 803c c831 aabc
00000030: ed4c b63c 35d8 a63d 74a4 fbbc b81b f63d
00000040: fb9d f03d 7d1a 243e 6f1d 243e f7bf 1d3d
00000050: f81e 23b9 0586 dabd 465f 353e 79d7 bcbd
00000060: 3714 b23c 2068 043e 4e98 66bc f112 2bbd
00000070: 4301 263d ffd4 37bd 7a27 bb3c 8992 11bd
00000080: e2eb 673c 0c6c 2dbd e31e 893d 231f 54bd
00000090: d87a 50bd 076d d63c ca2e 26bd 2f9b c93c
000000a0: 97d9 46bd f7bf b93d 8760 38be f1fe fbbc
000000b0: 0c41 9fbc e586 60bd 76ea e5bd 789a 4dba
000000c0: 46eb 28bc 7e8a 16bd 058a f03d d56f b3ba
000000d0: 20af 1bbe dd53 ba39 90d6 dcbc 1b42 96bd
000000e0: 3995 903d 812b ec3b 2026 1a3c 0ee9 1bbe
000000f0: bd21 3a3d a3c3 c4bd 4026 a5bd 79da 783d
00000100: 1246 f5bd cadc a2bd 6de5 ebbd 4f66 4ebc
00000110: 9b63 df3d 921f 823d f30a e5bd 070b fdbb
00000120: f955 f8bc c309 773d 4945 30bd 556a 243c
00000130: 12fc 533d 0373 b63d 41e7 39bc 51ce 71b9
00000140: 5e07 3abd 6613 1e3e ebd9 15bc 1b36 4cbd
00000150: 62d3 84bc 2175 383b c885 0d3e ee32 d6bc
00000160: fb42 a03d 660c e13b fb98 9a3c 2816 39bd
00000170: dc14 14bd 5aad 083a 1ee7 16bd 4fbc 003c
00000180: a300 083d 389a c5bd 15f7 38be 7097 e73d
00000190: 6a51 79ba bf9a c6bc 4141 6b3d 0f2a 523d
000001a0: 9a53 83bd 6208 8dbd 4b45 0c3d e524 153c
000001b0: b0e4 543b 48c9 44bc e4dd 68bd 949c ffbb
000001c0: 25c3 10be 7971 82bd ede6 1fbe 94e7 92bc
000001d0: 4445 853d 8d2d 88bd 2ad1 b23d 2994 183e
000001e0: 72a1 443c 52ea abbd e30c c3bd 2725 d0bc
000001f0: dfa6 febc 96f0 11bd c8c6 b83c 366b 2c3e
00000200: ac60 2fbd ae4b e4bc cb6f a43c ee90 3ebd
00000210: 33a3 9bbc fb65 433d cda0 ec3d b0e8 173d
00000220: 564d 47bc 3833 fabd 864d a0bd 258c d1bc
00000230: 24f7 803d b00c 6dbe ad7c bbbd 4e81 d73d
00000240: c5fa 82bc 7933 94bc e0c3 073d 2bcb af3d
00000250: 8fe2 90bc e1e1 a53d b8d3 15bc 9024 48bd
00000260: 1a30 603c a288 1c3e 0751 36bd fae2 743d
00000270: a6d9 843d c777 c1bc abf4 153d d8f6 27be
00000280: 3aa2 68bd 0ed1 e73d 9824 9fbc 62ac 55bd
00000290: 86c2 343e 5d38 9ebd 3c01 1cbe 9a1c 6e3b
000002a0: 69ab 973c 7e3d 0a3e 0d65 17bd c8ea fcbc
000002b0: 224a c0bd 0773 963c a01e 53bd 8928 593c
000002c0: 0e80 2c3d 4e74 dcbd c0ea 473e fbfb a9bc
000002d0: 4abe b1bd db2b febd e157 ae3d 394f d1bc
000002e0: cfef a5bc b3bb 5aba 7c7b b83c 5ab1 803d
000002f0: c3f7 a3bd d844 47bd 37b9 08bd d2fa 053d
00000300: e17b 1f3d 0fe9 97bc 58c5 15be c4b8 ac3d
00000310: 55d5 923d 81e9 f3bc fa25 2dbd c055 9f3c
00000320: 22ea 053e f4a2 a0bd 7757 253b 992b 7ebb
00000330: 50f2 3d3d 5eb4 8fbd 2b1f 813d 883c a5bd
00000340: b8be 1b3d 9bf4 c0bc 5fcd b4bd c82e d6bc
00000350: d4a1 f13c f0e6 163e 6469 aabd e00d 7bbd
00000360: ad63 293b d8d3 c9bc 17f2 953d 6d0c debc
00000370: b757 b7bc 33a9 a03d 88cf 443d 5f1e 04be
00000380: a0a0 92bd b629 80bd c561 f0bc bda8 aabc
00000390: a1d4 d43c 7511 3cbd 6871 b5bd 66bc 82bc
000003a0: 72cf d33d 1980 a13c 4f75 453d 6c98 a43d
000003b0: e542 723b 4adf 21bd 2438 8cbd 7533 e73a
000003c0: 99f3 f2bd 8156 d23c 973f bb3c 22da 043d
000003d0: b31d 1d3e 8259 133c d037 f03b 3eac 2bbe
000003e0: b91c b2bb f879 1d3d f4f5 dd3c 4d6e 9c3d
000003f0: d41f 693a 634e 483e a663 e8bc 9dc1 56bd
-0.040262934 -0.08583296 -0.022069702 0.0053685675 0.08518952 0.02868546 0.0006696261 -0.006757481
0.094427794 -0.084389575 0.015653176 -0.02077569 0.022253478 0.08146707 -0.030718066 0.12017006
0.117488824 0.1602573 0.16026853 0.03851315 -0.00015556428 -0.106700934 0.17712125 -0.09220786
0.021738155 0.12930346 -0.014074398 -0.04176611 0.040528547 -0.044880863 0.022845972 -0.035540137
0.01415536 -0.04233937 0.06695344 -0.051787507 -0.050898403 0.026175035 -0.040571965 0.02461013
-0.048547354 0.090698175 -0.18005572 -0.030761214 -0.019440196 -0.054816145 -0.112263605 -0.0007843147
-0.01031 -0.03675317 0.11745075 -0.0013689945 -0.15203524 0.00035539168 -0.02695778 -0.07336827
0.07059712 0.0072073345 0.009408504 -0.15225622 0.04544233 -0.09607627 -0.08063936 0.060755227
-0.119762555 -0.079522684 -0.11518369 -0.012597634 0.1090767 0.06353678 -0.11183729 -0.007722262
-0.030314432 0.060312044 -0.043034825 0.010035117 0.051754065 0.089086555 -0.011346639 -0.0002306041
-0.045417182 0.15437087 -0.009146194 -0.049856286 -0.016214076 0.0028145986 0.13820565 -0.026147332
0.078252755 0.006867933 0.018871775 -0.045187145 -0.036152706 0.00052138197 -0.036841504 0.007857396
0.033203732 -0.096485555 -0.18063004 0.11308181 -0.0009510728 -0.02424371 0.057435278 0.05130964
-0.0641243 -0.068863645 0.03424577 0.009103035 0.0032484941 -0.01201088 -0.056852236 -0.007800648
-0.14136942 -0.063692994 -0.15615435 -0.01793269 0.06507352 -0.06649313 0.08731301 0.14900269
0.012001382 -0.083943024 -0.09523942 -0.02540834 -0.03108543 -0.03562983 0.022555724 0.16837773
-0.042816803 -0.027868118 0.020072838 -0.046524934 -0.018998718 0.047704678 0.11554108 0.037087142
-0.012164434 -0.122168005 -0.078272864 -0.025579521 0.06297138 -0.23149371 -0.091546394 0.1052271
-0.015988717 -0.01809095 0.033145785 0.08583673 -0.017686157 0.080997236 -0.009144716 -0.048862994
0.013683343 0.15286496 -0.044510867 0.059786774 0.06486826 -0.023616685 0.036610287 -0.16402757
-0.056795336 0.11319171 -0.019426629 -0.05216635 0.1765233 -0.07725594 -0.15234846 0.0036332966
0.018514352 0.1350002 -0.036961604 -0.030873671 -0.0938914 0.018365396 -0.05154288 0.013254293
0.04211431 -0.10764371 0.19523144 -0.020750036 -0.08678873 -0.124107085 0.08512855 -0.025550472
-0.020255951 -0.00083440094 0.02251982 0.06283827 -0.08006241 -0.04864964 -0.03337976 0.032709904
0.0389365 -0.018543748 -0.14626062 0.08433679 0.07169596 -0.02977443 -0.042272545 0.019450068
0.13077596 -0.07843581 0.0025229135 -0.003878331 0.046373665 -0.07016824 0.06304773 -0.08068186
0.03802368 -0.023554137 -0.08828234 -0.026145354 0.029496111 0.14736533 -0.08320883 -0.06129253
0.0025846765 -0.024637148 0.073215656 -0.027105534 -0.022380693 0.07844772 0.04804948 -0.1290221
-0.07159543 -0.06257956 -0.029343495 -0.020832414 0.025980296 -0.045915086 -0.08859521 -0.015958976
0.103423014 0.019714402 0.048207577 0.08036885 0.0036966142 -0.039519586 -0.068466455 0.0017639237
-0.11862869 0.025676014 0.02285747 0.03243459 0.1534336 0.008993508 0.007330872 -0.16764924
-0.005435553 0.038446397 0.027094819 0.07638226 0.00088929874 0.19561152 -0.028367829 -0.052430738

0.bias f4 [256]
00000000: 9211 0c3c bc48 4b3d 3d2f 093b d7d2 e83b
00000010: 6904 cdbb c814 0d3d 05cc 8f3c d2ab 1b3d
00000020: 6654 4e3d 40c6 113d bee8 573d 6ba2 aa3c
00000030: 9c92 a33b f599 303d 639d 463c 0527 2bbd
00000040: 9e0b c93c 2c13 0f3d 7562 76bc 2603 333d
00000050: eabe 193d f5ec 4fba 58f1 56bc a48a b9bc
00000060: 3a58 1e3d bd8a 833b 4881 453d 8bdc 373d
00000070: 1ec6 0a3d 85af a13c df03 353d 16ba 0e3d
00000080: bdf7 263d cf4b d93c b61d c2bc c23f 413c
00000090: e405 df3b 0d58 263d 35d6 4a3d 7ef6 173d
000000a0: cde4 53ba 32b6 f4bc a738 92bc 59f5 8fbc
000000b0: 5c20 253c 6107 893c a00a 3c3d a344 823c
000000c0: c1eb 4fbc 2f54 893c 2e77 fdbc 6222 42bb
000000d0: 57d1 2abd 6ad7 943c a140 493d 9032 343d
000000e0: acc2 413b cdbd 8bbc 0f5e 16bd b04a 243b
000000f0: 65b7 373b e271 ddba 9f35 4d3d 8c80 283d
00000100: 2023 0b3d 7a98 c43b 1837 0c3d 09dd 863b
00000110: c774 ca3b c95a a43c 54e9 74b9 39e5 1ebd
00000120: 5932 913c 7a20 263d 983f 91bb 41df 1d3d
00000130: c747 1fbc a05b 07bd e263 57bc 1bdc 3b3d
00000140: 79d9 8fbb 1653 463d 08d9 0c3d ddaa b03c
00000150: 9135 01bd a6a8 90bc c62a 513d c5f9 8a3c
00000160: 6781 87bc 229a 9b3b 609a 163c c015 f33c
00000170: 48ec de3c 4807 b4bc c928 33bd 8ef8 88bc
00000180: c3ca 7a3d 1602 d839 ba41 253a 9c1c 60bc
00000190: 9ff9 01bd 89ba a63a 76dd 313d 6578 2b3d
000001a0: 2a83 d7bb 462d 993c 8236 0b3c 1dc1 fbbc
000001b0: cba4 6d3c e17c c63a 596e 64bc 600d a8bc
000001c0: f7a9 463d 4c6f 543d 68ee 363b f978 8fbc
000001d0: f435 043d 46d4 1a3d 0a5e 80bc 9d86 073d
000001e0: 6a93 5f3d 43d7 dabb 08e1 923c 24d1 973c
000001f0: 90e4 453d a47d 3a3d ae23 373d 6c95 e53c
00000200: c375 183d b6a3 003d 2139 143d f397 9f3b
00000210: 8158 fc3c 1144 4d3d 3f2b 19bd e68b 083d
00000220: cb50 283d 54ce 2f3d 3e25 413d 02cc 5a3c
00000230: 590c 513c e274 4c3d c8aa ffbb bc69 463d
00000240: c931 eabb b1a8 f53c b25d 203d 4867 8cbc
00000250: fdc8 1fbd 85d3 a53c a196 433c 1764 4c3d
00000260: 4c2d dcbc cad8 35bb d755 50bc 5171 063d
00000270: 1cd3 86bc 3da2 383d 0ab6 2b3d 416c d0bc
00000280: f867 eb3c 591a f53c 1d4a 3e3d ab8d 313d
00000290: ce62 0ebc c036 96bc 7e62 233d e466 e93c
000002a0: 4671 643d 721e 303d ee3b 23bd fe24 123d
000002b0: 8dd5 cd3c a3a3 46bc 9324 30bd 9d42 2fbc
000002c0: ce4e 143d 590f f338 36e2 6bbc a47d 033d
000002d0: 8e9e a5bc 00a0 0a3d eeb8 1fbc 8b4b 593d
000002e0: 812b 07bd 7141 d1bc 4e0c 903c eb9c bf3c
000002f0: 5719 183d b1b5 383c e787 1bbb ae8a 123d
00000300: 73dd 123b f575 233d d310 4a3d 8df5 53bc
00000310: 4a0c ae3c f628 c53c 93c3 2dbd 6a6e abbc
00000320: 098e 213d f52e 2b3d 85d8 9abb fb45 9abc
00000330: 08af 36bd 6d46 14bd 872b cc3c d130 5d3d
00000340: bba1 373d ac7a ba3c 4157 b33c fc18 e13c
00000350: 54ab e43c 889b a03c 7958 593c 48cd 903a
00000360: 5f6b d83c 4b2c 653c c42d 28bd 0bf8 a53c
00000370: 1416 04bd 8874 373d c490 15bd c7fd 2d3d
00000380: d6ad 59bc f2a1 453d aeb0 613c 6cb8 2e3c
00000390: 4b25 1ebd 82d2 743d 4dea a9bc f5b5 5a3d
000003a0: 4d4a 693c 0753 b13c 88d5 bd3b 0952 393b
000003b0: b787 e6bc 12a9 c5bc 35a4 e73c ff8a b9bc
000003c0: 60d5 093d b579 033c 33b2 00bd 77ea c63c
000003d0: 08d3 02bd 2d67 babc bfb4 333d 9f85 863c
000003e0: b884 fd3c b0ae 62bc e42d 75b8 6cb2 563b
000003f0: f976 273d 0ffa 553d 608c 3f3d fa66 893c
0.008549111 0.04962991 0.0020932697 0.007105212 -0.0062566292 0.034443647 0.017553339 0.038005657
0.050373457 0.035589457 0.052712195 0.0208294 0.0049918424 0.043115575 0.012122485 -0.04178526
0.024541672 0.034930393 -0.015038122 0.043704174 0.037535585 -0.00079317327 -0.013119064 -0.022649117
0.03865836 0.0040143416 0.048218995 0.04488806 0.033880346 0.019737015 0.044193145 0.034845434
0.040763605 0.026525406 -0.023695808 0.011794986 0.006806122 0.040611316 0.04952069 0.037100308
-0.0008083105 -0.029872034 -0.01784928 -0.017573046 0.010078516 0.016727151 0.04590857 0.01590187
-0.012690485 0.016763775 -0.030940618 -0.0029622545 -0.04170355 0.018169124 0.0491339 0.043993533
0.0029565496 -0.017058278 -0.036710795 0.0025068931 0.0028032896 -0.0016894902 0.050099965 0.041138217
0.033969045 0.005999622 0.03423223 0.004115705 0.0061784717 0.020062821 -0.00023356575 -0.038792823
0.017724203 0.040558316 -0.00443263 0.03854299 -0.009721703 -0.033046365 -0.0131463725 0.045864206
-0.0043899384 0.04841908 0.034386665 0.021565849 -0.031545226 -0.017658543 0.051066183 0.016964803
-0.016541196 0.0047485987 0.009192079 0.029673457 0.027212277 -0.021976128 -0.043740068 -0.016720083
0.061228525 0.00041200285 0.00063040445 -0.013678696 -0.031732198 0.0012720387 0.043424092 0.041862864
-0.0065769153 0.018698346 0.008496882 -0.030731732 0.014504622 0.0015143418 -0.013942325 -0.02051419
0.048501935 0.051863953 0.0027913097 -0.017513739 0.032278016 0.037800096 -0.015669841 0.03308736
0.054583944 -0.006678493 0.017929569 0.018532343 0.048313677 0.045529976 0.04471176 0.028025351
0.03722168 0.031406127 0.036187295 0.0048704087 0.03080392 0.05011374 -0.03739476 0.033336543
0.041092675 0.04292138 0.047154658 0.013354303 0.012759292 0.049916156 -0.007802341 0.04844068
-0.007147048 0.029987665 0.039151855 -0.017139092 -0.039010037 0.020242462 0.011937768 0.04990014
-0.026877068 -0.0027747625 -0.012715778 0.03282291 -0.016458087 0.045076597 0.041921653 -0.025442244
0.0287361 0.02991979 0.0464574 0.043347996 -0.008690549 -0.018336654 0.03988885 0.028491445
0.05577209 0.042997785 -0.039852075 0.03567981 0.025126243 -0.012123975 -0.04300363 -0.010697034
0.036207967 0.00011590002 -0.014397195 0.032102242 -0.020217206 0.033843994 -0.0097486805 0.05305056
-0.033000473 -0.0255439 0.017583992 0.023390254 0.03713354 0.011273787 -0.0023732127 0.035776787
0.0022409826 0.039907414 0.04933245 -0.012936962 0.021246094 0.024067383 -0.042422842 -0.020926673
0.039442096 0.04179283 -0.004725518 -0.018832197 -0.044600517 -0.036199976 0.0249231 0.054001633
0.044831973 0.022763573 0.021892192 0.027477734 0.027913727 0.019605413 0.013265722 0.0011047507
0.026418386 0.013987611 -0.04105927 0.020259878 -0.032247618 0.044788867 -0.036515012 0.04247835
-0.013286075 0.048250146 0.013775034 0.010664087 -0.038609784 0.05977107 -0.020741606 0.053396184
0.014238906 0.021646036 0.005793277 0.0028277657 -0.028140886 -0.02412847 0.028276542 -0.022649286
0.033650756 0.008024623 -0.031419944 0.024281723 -0.031939536 -0.022754276 0.043873545 0.016421137
0.030947074 -0.013835594 -5.845529e-05 0.0032760156 0.040884946 0.052240428 0.04676473 0.016772736

2.weight f4 [2, 256]
00000000: c5fe 813e 40d9 5fbe c296 283e cd85 65be
00000010: bcf7 313e 9c17 26be 8801 e2bc 18cb 2f3e
00000020: e61c 32be 5566 2ebe 879f 183e 814b db3d
00000030: 1774 e9bd dfaf e63d 330b ff3d ae62 5dbd
00000040: dbf5 06be af03 e43a 30d4 64be caee 0cbe
00000050: f62c 763e e9e4 01be 7a0c 52be dff4 35be
00000060: 6a65 2c3e 9626 0d3e 6b62 293e bf5c 533e
00000070: 4730 2e3e 75c5 443e c039 fc3d 0210 05bd
00000080: b23c 393e a6b6 3abe 3d7a 3cbe bf1d 073e
00000090: 2a22 4d3e d954 223e 86e6 5e3e cfbf 63be
000000a0: ebc9 883e 82b1 07bc f16b 8f3e 3447 543e
000000b0: 39ac 5ebe 2520 4e3e b4f7 343e 42c2 603e
000000c0: b837 dc3d f3b2 563e 886b 34bc fd8c 64bd
000000d0: 961b 65bd ba07 41be 05ed 4cbe eb65 183e
000000e0: 5089 4fbd c4d8 26bd 54bb bc3c ce12 1bbe
000000f0: 9664 4d3e 14c8 f23d 3c11 0fbe 63bb 3bbe
00000100: b55e 2ebe 7168 69be fed1 2f3e ebd5 4a3e
00000110: 372b 493e c988 2ebe f58b 33bc fea7 03bd
00000120: 5472 42be 4131 203e 00f3 b0b9 a661 24be
00000130: 18cd 223e 679c b3bc f5d6 503e cefd 2a3e
00000140: 9ea5 4dbe 1cdc 183e 9c37 e03d f0a9 243e
00000150: 2836 113d 26bf 09be e8d9 ec3d c85c a93d
00000160: 1066 253e dc28 413e ed6b 123e 857a 493e
00000170: 0d3e 55be d166 c93c 007c 37bb d179 3e3e
00000180: f79d e23d 4f35 01be 0b08 603e 8437 8abc
00000190: 7a1b 483d 7f8d 463e c73c 11be 0743 653e
000001a0: 842c 1cbe 9fa3 483e b232 0c3e dcfa f3bc
000001b0: 57fd 693e c8e6 6c39 b302 2ebe ab0b 533e
000001c0: 6c93 48be 3b58 d73d fa87 e5bd a5e1 633d
000001d0: 7896 55be 0bb3 5bbe f41a 42bd d2fe abbd
000001e0: 3cf9 f73d a38f 4f3e e924 49be d8d5 db3d
000001f0: aadb 393e dba7 233e 4c0e 5b3d 9185 57be
00000200: 1ac2 45be 898b 563e 6399 54be 9d09 4f3e
00000210: 8601 4a3e 4278 4d3e ecf9 c83c 1b6f 223e
00000220: 9ece 59be 06f8 40be f2fd 323e 6a9d 5abe
00000230: e53b 3a3e 436b f03d ed71 363e d0e4 d53d
00000240: 1442 523e bd0a 6cbd 2553 57be 7c6a aebd
00000250: e80f 1abc 668f 213e 7ce3 193e 61a9 3d3e
00000260: e457 2bbe ba1c 3a3e 325a 4bbd c4dc 31be
00000270: 9ea7 ff3d 36db 45be 08d7 23be 38da 8dbc
00000280: 0b43 ed3d a03d 2d3e 3368 0abe e016 313e
00000290: 30b1 043e 0dd4 283e cb4b 443e fb91 cb3d
000002a0: bd75 143e 3217 1bbe 9b29 45bd 8932 303e
000002b0: 8dcc c0bd 9044 123e 1cba 513d a15e 14be
000002c0: cda5 13be 1b94 d63c d63b 54bd 30c5 463e
000002d0: e233 8d3e ece0 3c3e 9c49 5e3d c63c 533e
000002e0: 7e4b 70bd 913e 6e3d a647 8abd 6b5c 2a3e
000002f0: 0550 52be 53aa 0a3e fabd 5f3e 3ba6 003e
00000300: be4e f43d 2aad 013e 7bd3 2d3e fae7 7a3e
00000310: 42d5 133e 9397 30be 2862 973c 9b29 3b3e
00000320: cad3 323e 01e8 0e3e 5e09 4c3e 4015 2cbd
00000330: dcb9 8bbc c03b 45bc aaa1 0ebc 5a1d 0e3e
00000340: f230 70be f4d6 493e d74e 303e cf2b 103e
00000350: cb91 55be 773d 46be 4862 43be c14d 663c
00000360: a2c3 453e c821 ee3d 94be ee3c 2a91 623e
00000370: d0f2 b0bc 8e50 1c3e 441d f1bc 5f79 1f3e
00000380: 6b39 49bd 561b 4bbe 8f3b 55be 5276 6a3e
00000390: b67f 3bbd 8b2e db3d 4c41 993e 07a3 053e
000003a0: 9140 55be 18df 163e 1d77 43be 8578 323e
000003b0: ee70 22bd 6903 5a3e 03e2 3f3e a383 473e
000003c0: 4c07 37be 679b 333e 1641 11bd e142 6ebe
000003d0: b0d2 e73c 7809 773c 1931 49be dfbb 65be
000003e0: bf0d 4fbe af10 753e c8a1 61be 38ea 05bc
000003f0: 746b 263e 900e d03d 1416 293e 040a 43bd
0.25389686 -0.21860218 0.1646376 -0.22414322 0.1737966 -0.16219944 -0.02758862 0.17167318
-0.17393836 -0.17031224 0.14904605 0.107077606 -0.113990955 0.112640135 0.12453308 -0.054049186
-0.13179724 0.0017396117 -0.22346568 -0.13762966 0.24040589 -0.12684979 -0.20512572 -0.17769192
0.16835561 0.1378425 0.1654145 0.20640849 0.17010604 0.19215949 0.123157024 -0.03248597
0.1808956 -0.18233737 -0.18406005 0.13194941 0.20032564 0.1585268 0.21767625 -0.22241138
0.2671655 -0.008282067 0.2801204 0.20730287 -0.21745385 0.2012945 0.17672616 0.21949103
0.10752815 0.20966701 -0.011011966 -0.05579852 -0.05593451 -0.18850604 -0.20012291 0.14882629
-0.05066806 -0.040734068 0.023038544 -0.15143892 0.20057902 0.11854568 -0.13971418 -0.18333201
-0.17028315 -0.22793747 0.1716995 0.19808166 0.19645391 -0.17044367 -0.010958661 -0.03214263
-0.18988925 0.15643789 -0.00033750385 -0.16052875 0.1589855 -0.021925164 0.203945 0.16698381
-0.20082709 0.14927715 0.10948107 0.16080451 0.035452038 -0.13451824 0.11565 0.0826965
0.16152215 0.18863243 0.14298983 0.19675644 -0.20824452 0.02458516 -0.0027997494 0.18601157
0.11065286 -0.12617992 0.21878068 -0.016872175 0.04885433 0.19389914 -0.14183341 0.2238885
-0.15251356 0.19593666 0.13691214 -0.029782705 0.22850548 0.00022592687 -0.16993217 0.2060992
-0.19587487 0.105148755 -0.11207576 0.055635113 -0.2085818 -0.21455018 -0.047388986 -0.083982125
0.121080846 0.20269637 -0.19642986 0.10734147 0.18150201 0.15982 0.05348043 -0.21047045
-0.19312325 0.20951666 -0.20761637 0.20218511 0.19727144 0.20065406 0.024533235 0.15862696
-0.21270224 -0.18844613 0.17479685 -0.21349111 0.1818691 0.117392085 0.17816897 0.10444033
0.2053302 -0.05762743 -0.21027811 -0.08516404 -0.009403206 0.15777358 0.15028185 0.18521644
-0.16732746 0.18175021 -0.049646564 -0.17369372 0.12483142 -0.19321904 -0.15999997 -0.017315969
0.11585053 0.1691804 -0.13516311 0.17293882 0.12958217 0.16487141 0.19169538 0.09939953
0.14498039 -0.15145567 -0.04813538 0.17206778 -0.09414015 0.14283967 0.05120288 -0.14489223
-0.14418717 0.026193669 -0.051814876 0.19411159 0.27578646 0.18445176 0.054269418 0.20628652
-0.058665745 0.058165137 -0.06751947 0.16636817 -0.20538338 0.13541536 0.21849814 0.12563412
0.119290814 0.12663713 0.16975205 0.24502555 0.1443682 -0.17245321 0.018479422 0.1827759
0.17463604 0.1395569 0.19925448 -0.042012453 -0.017056398 -0.012038171 -0.008705536 0.13878384
-0.23456171 0.19710904 0.17217575 0.14079212 -0.20856397 -0.19359384 -0.1908046 0.014056624
0.19312909 0.11627537 0.02914361 0.22125688 -0.021600157 0.15265104 -0.0294329 0.15573643
-0.049127024 -0.19834647 -0.20823501 0.22896698 -0.04577609 0.10702237 0.2993263 0.13050471
-0.20825411 0.14733541 -0.19088407 0.17428787 -0.03965848 0.21290363 0.1873856 0.19483809
-0.17873877 0.1753975 -0.03546246 -0.232677 0.028298706 0.015077941 -0.19647636 -0.22434948
-0.20220087 0.23932146 -0.22034371 -0.008173518 0.16251928 0.101590276 0.16512328 -0.047616974

2.bias f4 [2]
00000000: eb94 f13c f382 fabb
0.029489955 -0.007645005
